…
2020-03-08 06:50:44,573 - GraphParser - INFO - num_pos : 9
2020-03-08 06:50:44,573 - GraphParser - INFO - num_ner : 479
2020-03-08 06:50:44,573 - GraphParser - INFO - num_arc : 27
2020-03-08 06:50:44,574 - GraphParser - INFO - num_auto : 4
2020-03-08 06:50:44,576 - GraphParser - INFO - Reading Data
data/ud_pos_ner_dp_train_san
Total number of data: 1495
data/ud_pos_ner_dp_dev_san
Total number of data: 1000
data/ud_pos_ner_dp_test_san
Total number of data: 1000
Setting train and dev to 500 samples
2020-03-08 06:50:49,513 - GraphParser - INFO - Creating Networks
BiAffine_Parser_Gated(
  (rnn_encoder): BiRecurrentConv_Encoder(
    (word_embedd): Embedding(7657, 350)
    (char_embedd): Embedding(54, 100)
    (pos_embedd): Embedding(9, 100)
    (conv1d): Conv1d(100, 100, kernel_size=(3,), stride=(1,), padding=(2,))
    (dropout_in): Dropout2d(p=0.33)
    (dropout_out): Dropout2d(p=0.33)
    (dropout_rnn_in): Dropout(p=0.33)
    (rnn): LSTM(550, 512, num_layers=3, batch_first=True, dropout=0.33, bidirectional=True)
  )
  (parser): BiAffine_Parser_Decoder(
    (dropout_out): Dropout(p=0.33)
    (arc_h): Linear(in_features=1024, out_features=512, bias=True)
    (arc_c): Linear(in_features=1024, out_features=512, bias=True)
    (attention): BiAAttention()
    (arc_tag_h): Linear(in_features=1024, out_features=128, bias=True)
    (arc_tag_c): Linear(in_features=1024, out_features=128, bias=True)
    (bilinear): BiLinear (in1_features=128, in2_features=128, out_features=27)
  )
)
2020-03-08 06:50:49,845 - GraphParser - INFO - Training INFO of in domain san
2020-03-08 06:50:49,845 - GraphParser - INFO - Training on Dependecy Parsing
2020-03-08 06:50:49,846 - GraphParser - INFO - train: gamma: 0.000000, batch: 16, clip: 5.00, unk replace: 0.00
2020-03-08 06:50:49,846 - GraphParser - INFO - number of training samples for san is: 500
…
Total number of data: 500
saved_models/ud_parser_san_/number_of_children/parser_domain_san_test_model_domain_san_data_domain_san_gold.txt
Total number of data: 1000
saved_models/ud_parser_san_/number_of_children/parser_domain_san_train_model_domain_san_data_domain_san_pred.txt
Total number of data: 1495
2020-03-08 06:57:22,384 - SequenceTagger - INFO - Creating Networks
2020-03-08 06:57:22,694 - SequenceTagger - INFO - Training INFO of in domain san
2020-03-08 06:57:22,694 - SequenceTagger - INFO - Training on Dependecy Parsing
Sequence_Tagger(
  (rnn_encoder): BiRecurrentConv_Encoder(
    (word_embedd): Embedding(7657, 350)
    (char_embedd): Embedding(54, 100)
    (pos_embedd): Embedding(9, 100)
    (conv1d): Conv1d(100, 100, kernel_size=(3,), stride=(1,), padding=(2,))
    (dropout_in): Dropout2d(p=0.33)
    (dropout_out): Dropout2d(p=0.33)
    (dropout_rnn_in): Dropout(p=0.33)
    (rnn): LSTM(550, 512, num_layers=3, batch_first=True, dropout=0.33, bidirectional=True)
  )
  (sequence_tagger_decoder): Tagger_Decoder(
    (criterion_obj): CrossEntropyLoss()
    (dropout_out): Dropout(p=0.33)
    (fc_1): Linear(in_features=1024, out_features=128, bias=True)
    (fc_2): Linear(in_features=128, out_features=64, bias=True)
    (fc_3): Linear(in_features=64, out_features=14, bias=True)
  )
)
2020-03-08 06:57:22,694 - SequenceTagger - INFO - train: gamma: 0.000000, batch: 16, clip: 5.00, unk replace: 0.00
2020-03-08 06:57:22,694 - SequenceTagger - INFO - number of training samples for san is: 1495
2020-03-08 06:57:22,695 - SequenceTagger - INFO - dropout(in, out, rnn): (0.33, 0.33, (0.33, 0.33))
2020-03-08 06:57:22,695 - SequenceTagger - INFO - num_epochs: 100
…
Total number of data: 500
saved_models/ud_parser_san_/relative_pos_based/parser_domain_san_test_model_domain_san_data_domain_san_gold.txt
Total number of data: 1000
saved_models/ud_parser_san_/relative_pos_based/parser_domain_san_train_model_domain_san_data_domain_san_pred.txt
Total number of data: 1495
2020-03-08 06:59:38,257 - SequenceTagger - INFO - Creating Networks
2020-03-08 06:59:38,575 - SequenceTagger - INFO - Training INFO of in domain san
2020-03-08 06:59:38,575 - SequenceTagger - INFO - Training on Dependecy Parsing
Sequence_Tagger(
  (rnn_encoder): BiRecurrentConv_Encoder(
    (word_embedd): Embedding(7657, 350)
    (char_embedd): Embedding(54, 100)
    (pos_embedd): Embedding(9, 100)
    (conv1d): Conv1d(100, 100, kernel_size=(3,), stride=(1,), padding=(2,))
    (dropout_in): Dropout2d(p=0.33)
    (dropout_out): Dropout2d(p=0.33)
    (dropout_rnn_in): Dropout(p=0.33)
    (rnn): LSTM(550, 512, num_layers=3, batch_first=True, dropout=0.33, bidirectional=True)
  )
  (sequence_tagger_decoder): Tagger_Decoder(
    (criterion_obj): CrossEntropyLoss()
    (dropout_out): Dropout(p=0.33)
    (fc_1): Linear(in_features=1024, out_features=128, bias=True)
    (fc_2): Linear(in_features=128, out_features=64, bias=True)
    (fc_3): Linear(in_features=64, out_features=56, bias=True)
  )
)
2020-03-08 06:59:38,575 - SequenceTagger - INFO - train: gamma: 0.000000, batch: 16, clip: 5.00, unk replace: 0.00
2020-03-08 06:59:38,575 - SequenceTagger - INFO - number of training samples for san is: 1495
2020-03-08 06:59:38,575 - SequenceTagger - INFO - dropout(in, out, rnn): (0.33, 0.33, (0.33, 0.33))
2020-03-08 06:59:38,575 - SequenceTagger - INFO - num_epochs: 100
…
Total number of data: 500
saved_models/ud_parser_san_/distance_from_the_root/parser_domain_san_test_model_domain_san_data_domain_san_gold.txt
Total number of data: 1000
saved_models/ud_parser_san_/distance_from_the_root/parser_domain_san_train_model_domain_san_data_domain_san_pred.txt
Total number of data: 1495
2020-03-08 07:03:33,622 - SequenceTagger - INFO - Creating Networks
2020-03-08 07:03:33,933 - SequenceTagger - INFO - Training INFO of in domain san
2020-03-08 07:03:33,933 - SequenceTagger - INFO - Training on Dependecy Parsing
Sequence_Tagger(
  (rnn_encoder): BiRecurrentConv_Encoder(
    (word_embedd): Embedding(7657, 350)
    (char_embedd): Embedding(54, 100)
    (pos_embedd): Embedding(9, 100)
    (conv1d): Conv1d(100, 100, kernel_size=(3,), stride=(1,), padding=(2,))
    (dropout_in): Dropout2d(p=0.33)
    (dropout_out): Dropout2d(p=0.33)
    (dropout_rnn_in): Dropout(p=0.33)
    (rnn): LSTM(550, 512, num_layers=3, batch_first=True, dropout=0.33, bidirectional=True)
  )
  (sequence_tagger_decoder): Tagger_Decoder(
    (criterion_obj): CrossEntropyLoss()
    (dropout_out): Dropout(p=0.33)
    (fc_1): Linear(in_features=1024, out_features=128, bias=True)
    (fc_2): Linear(in_features=128, out_features=64, bias=True)
    (fc_3): Linear(in_features=64, out_features=15, bias=True)
  )
)
2020-03-08 07:03:33,933 - SequenceTagger - INFO - train: gamma: 0.000000, batch: 16, clip: 5.00, unk replace: 0.00
2020-03-08 07:03:33,933 - SequenceTagger - INFO - number of training samples for san is: 1495
2020-03-08 07:03:33,933 - SequenceTagger - INFO - dropout(in, out, rnn): (0.33, 0.33, (0.33, 0.33))
2020-03-08 07:03:33,934 - SequenceTagger - INFO - num_epochs: 100
…
2020-03-08 07:05:32,780 - GraphParser - INFO - num_pos : 9
2020-03-08 07:05:32,780 - GraphParser - INFO - num_ner : 479
2020-03-08 07:05:32,780 - GraphParser - INFO - num_arc : 27
2020-03-08 07:05:32,780 - GraphParser - INFO - num_auto : 4
2020-03-08 07:05:32,782 - GraphParser - INFO - Reading Data
data/ud_pos_ner_dp_train_san
Total number of data: 1495
data/ud_pos_ner_dp_dev_san
Total number of data: 1000
data/ud_pos_ner_dp_test_san
Total number of data: 1000
2020-03-08 07:05:36,903 - GraphParser - INFO - Creating Networks
BiAffine_Parser_Gated(
  (rnn_encoder): BiRecurrentConv_Encoder(
    (word_embedd): Embedding(7657, 350)
    (char_embedd): Embedding(54, 100)
    (pos_embedd): Embedding(9, 100)
    (conv1d): Conv1d(100, 100, kernel_size=(3,), stride=(1,), padding=(2,))
    (dropout_in): Dropout2d(p=0.33)
    (dropout_out): Dropout2d(p=0.33)
    (dropout_rnn_in): Dropout(p=0.33)
    (rnn): LSTM(550, 512, num_layers=3, batch_first=True, dropout=0.33, bidirectional=True)
  )
  (extra_rnn_encoders): ModuleDict(
    (0): BiRecurrentConv_Encoder(
      (word_embedd): Embedding(7657, 350)
      (char_embedd): Embedding(54, 100)
      (pos_embedd): Embedding(9, 100)
      (conv1d): Conv1d(100, 100, kernel_size=(3,), stride=(1,), padding=(2,))
      (dropout_in): Dropout2d(p=0.33)
      (dropout_out): Dropout2d(p=0.33)
      (dropout_rnn_in): Dropout(p=0.33)
      (rnn): LSTM(550, 512, num_layers=3, batch_first=True, dropout=0.33, bidirectional=True)
    )
    (1): BiRecurrentConv_Encoder(
      (word_embedd): Embedding(7657, 350)
      (char_embedd): Embedding(54, 100)
      (pos_embedd): Embedding(9, 100)
      (conv1d): Conv1d(100, 100, kernel_size=(3,), stride=(1,), padding=(2,))
      (dropout_in): Dropout2d(p=0.33)
      (dropout_out): Dropout2d(p=0.33)
      (dropout_rnn_in): Dropout(p=0.33)
      (rnn): LSTM(550, 512, num_layers=3, batch_first=True, dropout=0.33, bidirectional=True)
    )
    (2): BiRecurrentConv_Encoder(
      (word_embedd): Embedding(7657, 350)
      (char_embedd): Embedding(54, 100)
      (pos_embedd): Embedding(9, 100)
      (conv1d): Conv1d(100, 100, kernel_size=(3,), stride=(1,), padding=(2,))
      (dropout_in): Dropout2d(p=0.33)
      (dropout_out): Dropout2d(p=0.33)
      (dropout_rnn_in): Dropout(p=0.33)
      (rnn): LSTM(550, 512, num_layers=3, batch_first=True, dropout=0.33, bidirectional=True)
    )
  )
  (gate): Gating(
    (linear): Linear(in_features=4096, out_features=4096, bias=True)
    (softmax): Softmax()
  )
  (parser): BiAffine_Parser_Decoder(
    (dropout_out): Dropout(p=0.33)
    (arc_h): Linear(in_features=1024, out_features=512, bias=True)
    (arc_c): Linear(in_features=1024, out_features=512, bias=True)
    (attention): BiAAttention()
    (arc_tag_h): Linear(in_features=1024, out_features=128, bias=True)
    (arc_tag_c): Linear(in_features=1024, out_features=128, bias=True)
    (bilinear): BiLinear (in1_features=128, in2_features=128, out_features=27)
  )
)
Loading saved sequence_tagger from: saved_models/ud_parser_san_/number_of_children/domain_san.pt
Loading saved sequence_tagger from: saved_models/ud_parser_san_/relative_pos_based/domain_san.pt
Loading saved sequence_tagger from: saved_models/ud_parser_san_/distance_from_the_root/domain_san.pt
…
